Regression/models/checkpoint.pth (torch, 66101 bytes, 9 tensors)

net.0.weight f4 [1024, 3]
00000000: 44ad 23be 8c10 83bc f367 84bc 1556 713c
00000010: d7c5 22be 5f11 983c d231 0ebe a949 c23a
00000020: 7638 c83b 47f7 45bb 593a 193d 9e38 863a
00000030: 07f4 be3c 900e 0e3d dd90 5dbc 35d2 fc3b
00000040: 0252 81bc d58b 28bb 431a 0ebc b436 20bb
00000050: be64 edba 8af8 22bb a128 51bc 94df 1e3b
00000060: cbd9 1f3e 975b cf39 124a f4ba 8e0b 273c
00000070: 9701 613c 256c a2bd 8f63 443c a15a bebc
00000080: 5089 db3c a5a5 fa3b 35a1 a1bc 7c07 28bb
00000090: 5206 633d d149 80bc a566 0e3e ffde e9bd
000000a0: a283 a2bc 62da 52be 6c2e 6b3c 3e3f c1bc
000000b0: 2f03 bfbc d06b a83c 1710 01bd 4cb5 2cbe
000000c0: 74cc aa3d 75c8 e83c 6b5b 0c3c 5278 c33d
000000d0: e6d2 42bc 7693 303c bc85 e03d 5ce5 78bc
000000e0: 7d2e b2bd f05d 9dbb f592 b7bc 923b 7fbb
000000f0: 8bc5 903b c9a9 9a3c d39b 68ba 8944 92bd
00000100: 3c1e 8dbc 9849 50bb 40a8 073d dc90 14bb
00000110: 47bf 3fbc bb14 803a 7a95 e1ba 94b9 69ba
00000120: 48da 34be 5578 123e f7a2 dc3c 9129 96ba
00000130: 2ffc 19bd e88e 0dbb 71f8 153d 0172 b5bd
00000140: 4b6e 9bbc de3f 123c deee 3abd 0c4d 36bb
00000150: 27da a1bd 3849 233e ab15 1e3d 3b06 1abe
00000160: fd53 adbc d574 aa3b 868b 5c3c 75d1 bfbc
00000170: 6056 11be 58ff 9bbc ab83 04bb 4ab0 09be
00000180: ba55 493c 4d69 12bc 3090 b13c cb67 263c
00000190: 7017 90bc 5db3 c33a 5618 1a3c f658 8dbc
000001a0: e6cc 893d 9965 343e 299d eb3b 4ffb 0ebc
000001b0: 95bd febd c3bf 37be bca3 1abb ed12 da3b
000001c0: a792 a3bc 8e17 63bb 8bf6 233e b52f 253e
000001d0: 4148 f3ba 0f47 493b e30b 9b3b 0bb2 93ba
000001e0: d79a 2dbe 7a97 85bc 42a6 143e ad82 bbbd
000001f0: 186b 31bc d669 ecba 49c7 cdbd 3312 f6bd
00000200: 8944 993d 7c97 993b 5f5f 9c3c 134a f8ba
00000210: 6746 943c b6fa a8bd 1bce 26bc e6dc 4a3d
00000220: 6773 c73b f3de 9eba 7c89 513b 5fdc ad3d
00000230: 3267 ffbd 3741 2f3d 607a 04bb 77fe 4aba
00000240: c330 763c 636a f1bd a555 70bb 2fe5 2a3e
00000250: 9183 0fbc 7a85 2ebb a3d5 3cbb bc89 c83d
00000260: 81f9 2a3c f165 4c3d 12a1 35bd ae4a 07ba
00000270: a162 4a3c 3d14 c0bc 6cce 193e e199 9f3c
00000280: 36fa 673d 07df ef3b d9ab ad3b 73b5 c4bb
00000290: 7817 06be 5c7e fabd d9df 7ebd 9965 a4bd
000002a0: aad7 a93c 51a9 b1bc a0d7 0dbc dcee a1bd
000002b0: 97f8 383e 3978 ad3d e671 643c 6290 363e
000002c0: 339c 04bd 4c06 8ebc 432c f6bc 48a8 1abb
000002d0: 8390 08be 8269 ce3d 3a89 d4b6 06bb 553c
000002e0: 5b76 b2bc f595 abba ecd7 333c 8a1a a8bc
000002f0: 1ad4 0a3e 6c68 12ba c6a2 aabc 637b b4bd
00000300: b8d8 883c 9f1b 11bd 9c73 c33c eaa5 a23d
00000310: 3941 e9bc 6f95 d8bb 4b85 063c b364 ae3d
00000320: e8da 4fbb 135b 863d 2bd6 06bc 0f1a 093e
00000330: d7b7 3c3e 4dd4 513d 7a47 bf3c fb68 193c
00000340: ffcd bbbc bd04 4fbb 5238 073a 226d 733a
00000350: 4706 993a 2e02 383d 4bc5 36be a417 46be
00000360: 0bdd dabc 51db d1bb b559 92ba 8386 4a3b
00000370: deaf b9bb 20c9 42bd 6b6e 3d3c 87d8 4b3d
00000380: 14f2 70bd a0c3 033e 399b 24bc b057 3e3e
00000390: c754 24be 4c64 44be 3ebe 053c af87 1dbe
000003a0: b406 d9bd 319e cc3b a708 fb3c cd89 3abe
000003b0: fa8d b73d 111d 8f3b 18ad 963d 5d5b d6bc
000003c0: 6650 27be e150 74bd ddf4 70bb a138 45be
000003d0: df3a dcbc 58e6 2ebd 69d1 a23a ac45 22bb
000003e0: e6e5 e4b9 ba87 31be 1293 003b 647b 29bd
000003f0: 999c 053d 0625 1f3e a0ba 92ba 2e04 b2ba
-0.15984064 -0.015999101 -0.016162848 0.014729996 -0.15895782 0.01856297 -0.13886192 0.0014822978
0.0061102463 -0.0030207203 0.03740916 0.0010240262 0.02330972 0.034681857 -0.013523308 0.0077154883
-0.015786175 -0.0025718112 -0.0086732535 -0.0024446668 -0.0018111689 -0.002486738 -0.012766034 0.002424215
0.15610425 0.00039550356 -0.0018637797 0.010195626 0.013733289 -0.07930783 0.011986627 -0.023236575
0.026798874 0.007649141 -0.01973019 -0.0025639227 0.05542595 -0.015660198 0.13906343 -0.11419486
-0.019838158 -0.20591119 0.01435433 -0.023589727 -0.023316948 0.020559222 -0.031509485 -0.16866034
0.083397776 0.028415898 0.008566718 0.09544434 -0.011891102 0.010777345 0.10963008 -0.015191402
-0.08700273 -0.004802458 -0.022408942 -0.0038945419 0.00441808 0.018879788 -0.0008873317 -0.07141978
-0.017226331 -0.0031782147 0.03311944 -0.002266935 -0.011703319 0.0009771803 -0.0017210685 -0.0008915898
-0.17661393 0.14303716 0.026933176 -0.001145648 -0.037594017 -0.0021600071 0.036613885 -0.08859635
-0.01897349 0.00892636 -0.045637958 -0.002781692 -0.079029374 0.159459 0.038594883 -0.15041439
-0.021158213 0.0052019157 0.013460999 -0.023415307 -0.14193106 -0.019042656 -0.0020220082 -0.13446155
0.012288505 -0.0089362385 0.0216752 0.010156582 -0.0175893 0.0014930774 0.009405216 -0.017254334
0.067285344 0.17616881 0.007190366 -0.008726909 -0.12438504 -0.17944245 -0.0023596128 0.006655088
-0.01996739 -0.003465149 0.16012017 0.1613148 -0.0018560962 0.003071252 0.0047316416 -0.0011268271
-0.16953598 -0.016307581 0.14516547 -0.09155784 -0.010828756 -0.0018036913 -0.10047776 -0.1201519
0.07483775 0.004687248 0.019088445 -0.0018942974 0.018099977 -0.08250944 -0.010180975 0.04952707
0.006086755 -0.0012120887 0.0031972816 0.08489298 -0.12470855 0.042786803 -0.0020214543 -0.00077436067
0.015026274 -0.1178787 -0.0036672142 0.16688989 -0.008759395 -0.0026629851 -0.002881386 0.09791896
0.010435463 0.049901906 -0.04434306 -0.00051609694 0.0123526165 -0.02344715 0.1502015 0.019482555
0.056635104 0.007320288 0.005300027 -0.0060030757 -0.1309489 -0.122311324 -0.062225197 -0.08027191
0.02073272 -0.021687182 -0.008657366 -0.07906887 0.1806358 0.08470196 0.013943171 0.17828515
-0.032375526 -0.017336987 -0.030050403 -0.0023598839 -0.13336377 0.10078718 -6.3340676e-06 0.013045078
-0.021784952 -0.0013090955 0.010976773 -0.020520467 0.13557473 -0.0005585018 -0.02082957 -0.08812597
0.016704902 -0.035426732 0.023858838 0.07941802 -0.028473483 -0.0066096107 0.00821049 0.085153006
-0.0031716172 0.0656034 -0.008229773 0.13388847 0.18429504 0.051227856 0.023349512 0.009363408
-0.022925375 -0.0031588518 0.00051582337 0.00092859764 0.0011674844 0.044923954 -0.17848699 -0.19344956
-0.02671673 -0.0064043184 -0.0011165651 0.003090293 -0.005666717 -0.04755509 0.01156197 0.049767043
-0.058824614 0.12867594 -0.010046774 0.18588138 -0.16047965 -0.19178885 0.008163033 -0.1538379
-0.10596982 0.006244444 0.030643774 -0.1821663 0.08962627 0.0043674787 0.07357234 -0.026166612
-0.16339263 -0.059647445 -0.0036767044 -0.19259883 -0.02688354 -0.04270014 0.0012422028 -0.0024760766
-0.00043658837 -0.17336932 0.001961891 -0.04137744 0.032620046 0.15541467 -0.0011194535 -0.0013581568

net.0.bias f4 [1024]
00000000: 7f93 0d3c d548 4abe 5a36 23b9 9680 37be
00000010: 3365 3c39 2c6f a63c f434 1f3b b72e 483d
00000020: 7ad8 03be be72 263a c3dc f2bd b5ca 013e
00000030: f8ca f837 1abc b2bd a4e4 b5bd 20e3 b7bc
00000040: 02c4 30bc 91f2 1fbd ade6 c1bc 3b17 8dbd
00000050: 53aa 433d f87f 58bd df8e 1e3e 59bd d33d
00000060: ae8e 05b9 274d 923b eb44 bdbd d21f 2abe
00000070: 3ac2 52be 5aa9 d83b 5ed0 ab3c 0cb0 493d
00000080: 3c50 953d 81b8 e9bd fe43 f13d b8ce 893c
00000090: 3acb 1839 d4ee 873c 2efa ccbc 1f5f d338
000000a0: 391e 073e c6ee 2f3e 7bc9 33bc 33e8 1cbe
000000b0: 3c6e 2cbc 019e d7bb 1226 81bd 5534 db3b
000000c0: 282f c03c 5e19 f0bc e67d 413e c0ab a83d
000000d0: c137 32bd 4919 86bb 6784 b4b8 9395 83bc
000000e0: 974f 183e 563b ad3b b478 4ebe 54c2 2a38
000000f0: 5856 c6ba f500 fdbd 30d5 f339 9425 a438
00000100: 91ec d53d 6210 5fbc c94c 66bc 40ae 253d
00000110: 8ac7 f3bb 1fe3 533c 0469 fcbb c168 f13c
00000120: 026f 9fbc 5671 7db8 ac7c 1fbe 32ae e3b8
00000130: 40f4 333c 17d8 40bd 525b 6b3e 9ca4 5fb8
00000140: a173 52be 2102 af3c 5785 2e3e 7653 73bd
00000150: 911b 94bd 2a28 1a3d f166 2abe c1b5 e7bc
00000160: a0f9 9fbd a501 503c 804f 8336 8101 68ba
00000170: e92c ae3d 0222 353e d898 913d 2494 a2bd
00000180: de1e 253e 18b6 cf3a 805b 153a 64c5 083e
00000190: c35b 39be 85f8 1d3e 8aac 7b3a ec5a 1cbd
000001a0: 7899 5638 a223 44be 8676 3839 c5a3 1d39
000001b0: 5d08 9dbd 34c2 7fbb bc76 39bd 4e99 3a3d
000001c0: 93e5 273e 4021 5637 bf8e 873d 1827 4abe
000001d0: 88cd 0c3c e0d5 033e 8fb1 bebb 8fab 443e
000001e0: 508a 45be c0f2 cdbb f384 ed3d db95 4a3b
000001f0: 00ee 5435 570d 213b 558e b539 74c6 5d3e
00000200: 57d3 b1bd 10a4 9538 f1ca 693c daff c8bd
00000210: 8fb2 32be 7dc7 173b 5261 a23d 29ea 25bc
00000220: 139c 56bb 850d 7fbc 06bc 553d d0f6 113c
00000230: c4b7 13be a872 113e 7497 ae3c 88ac 4cbe
00000240: 3e99 2a3c 11b5 7bbd 2111 5ebc 9aa4 12be
00000250: b6dd 3cbe bd61 323d b8d3 9e3c b5d1 993d
00000260: e6ee 613a b0a4 3cbd fad9 bcbd 8513 8dbb
00000270: 2583 0b39 5f29 f0bd 2e98 ce3d 524e 12ba
00000280: c4ba 6f3d 696e 513b 3c84 293d 3e9a 403d
00000290: f7f6 b8bd 42b0 153b d8a2 5dbd 3448 87bd
000002a0: 1b91 b9bb 6274 4139 e654 5fbc f113 e3ba
000002b0: f509 3a3d b4c4 b33d 0208 8638 1889 a3ba
000002c0: fd02 06be 30fe 2ebb 68b7 1d3e d4c3 453a
000002d0: 882c c0bb 7e38 303e 00ee eb3b 9475 3ebb
000002e0: 908c 14b7 4eca 873d 0937 06bd 295e e73c
000002f0: 7078 b8b7 399c 38bd 0f8c a7bd ec78 f4bd
00000300: cbe4 d6b8 c12e 38bd 9310 8dbd 6091 19be
00000310: 7286 453d 20b1 3cbe 7044 da3a 1ce2 d7b8
00000320: 7068 d738 5460 3f3d c0a4 11bd c639 c139
00000330: c8c3 2fbe 2f82 053c f195 09be a4f1 853a
00000340: c927 f6bc aace d33d ed08 cb3c a893 1a3c
00000350: 7055 38be ac4d 2d3e 1e28 353e 0672 7dbd
00000360: 1aae e43a d264 543e 895f 2d3b 1aa7 e23b
00000370: f43e 29bb 0ba3 ae3d ec17 fcb8 b7d1 d8bc
00000380: 383d be39 fbbe a13b 0f3e eebb 4dbe 4abd
00000390: 2315 8bbd 2cab d5bd e064 e9bd eaed 9fb8
000003a0: 29b3 69bb adf6 b7b8 4e16 6d3d 62f2 17b9
000003b0: 1e1d 013e 50ae 98b7 db8d be3d 80da 4ebd
000003c0: 25e0 163b f8d6 b43b ac8a 22be 52f0 2fbd
000003d0: f28a 37be 3644 8d3d 1e92 5f39 97cd 23bd
000003e0: f353 6239 2233 d33c c1b8 d33b 0410 1abe
000003f0: f401 8e38 5df0 77b9 0995 7cbd d260 9a3d
0.008641123 -0.19754346 -0.00015565139 -0.17920145 0.00017966777 0.020316683 0.0024293037 0.048872676
-0.12875548 0.00063494954 -0.11858513 0.12674983 2.9658418e-05 -0.08727284 -0.088815 -0.022447169
-0.010788919 -0.03904969 -0.023669565 -0.068891965 0.047769856 -0.052856416 0.15484188 0.103388496
-0.00012737021 0.0044647637 -0.09241661 -0.16613701 -0.20581904 0.006611985 0.02097338 0.049240157
0.07290694 -0.114121445 0.117805466 0.016822204 0.00014571557 0.016593374 -0.025021639 0.00010078982
0.13195123 0.17180929 -0.01097333 -0.15322952 -0.010524329 -0.006580115 -0.063060895 0.006689588
0.023459986 -0.029308971 0.18895683 0.08235884 -0.043510202 -0.0040923697 -8.607731e-05 -0.016062533
0.14874111 0.0052866144 -0.20163232 4.071214e-05 -0.0015131934 -0.12353698 0.0004650741 7.827129e-05
0.10445512 -0.013614746 -0.014056393 0.04044938 -0.0074395584 0.012932568 -0.0077029485 0.029468896
-0.019462112 -6.0425453e-05 -0.15574902 -0.0001085665 0.010983527 -0.04708108 0.22984055 -5.3320648e-05
-0.20551921 0.02136332 0.17043053 -0.059405766 -0.072318204 0.03763596 -0.16640832 -0.02828491
-0.07811284 0.012695705 3.9133593e-06 -0.0008850322 0.0850466 0.17688754 0.07109231 -0.07938412
0.16125056 0.0015847115 0.00056975335 0.13356549 -0.1810141 0.15426834 0.00096006005 -0.038172647
5.1164505e-05 -0.19154218 0.00017591761 0.00015033696 -0.07667611 -0.0039025666 -0.04527925 0.04555636
0.1639617 1.2763136e-05 0.066190235 -0.19741476 0.008593924 0.12874556 -0.0058195065 0.1920607
-0.19291043 -0.0062850416 0.11597624 0.0030912075 7.932249e-07 0.0024574602 0.00034629056 0.21657735
-0.08682888 7.135433e-05 0.014269576 -0.09814425 -0.17450927 0.0023159676 0.079287186 -0.010126629
-0.0032746836 -0.015567188 0.052181266 0.008908942 -0.1442557 0.14203894 0.021312453 -0.1998769
0.010412512 -0.061451975 -0.013553889 -0.14320603 -0.18443951 0.04355024 0.019388065 0.075107016
0.00086186675 -0.046055496 -0.09221263 -0.0043053054 0.00013304928 -0.11726641 0.1008762 -0.00055811286
0.058527723 0.0031956679 0.041385874 0.047022097 -0.0903148 0.0022840654 -0.054110378 -0.066055685
-0.00566305 0.0001844927 -0.013631081 -0.0017324669 0.045419652 0.087777525 6.3911095e-05 -0.001247677
-0.13087077 -0.00267018 0.15401995 0.0007544134 -0.0058646835 0.1720905 0.0072000027 -0.0029061781
-8.854215e-06 0.066303834 -0.03276733 0.028243141 -2.1990592e-05 -0.04507086 -0.08181011 -0.119371265
-0.00010246931 -0.044966463 -0.06887927 -0.14996862 0.04822392 -0.18426943 0.0016652476 -0.00010294115
0.00010271452 0.046722725 -0.03555751 0.00036854873 -0.17164528 0.008148714 -0.13436104 0.0010219109
-0.030048268 0.103421524 0.02478453 0.009434618 -0.18001342 0.1692416 0.17691085 -0.06187632
0.0017446906 0.20741585 0.0026454648 0.0069168927 -0.0025824877 0.08527192 -0.00012020752 -0.026467187
0.00036285236 0.0049360967 -0.0072705816 -0.04949789 -0.06791141 -0.10433039 -0.113961935 -7.626026e-05
-0.0035659766 -8.772067e-05 0.0578826 -0.00014490777 0.12608764 -1.8200983e-05 0.093044005 -0.050501347
0.0023021784 0.0055187903 -0.15873212 -0.042953797 -0.17924097 0.06897776 0.0002132137 -0.039990988
0.00021584313 0.025781218 0.0064612334 -0.15045172 6.7714514e-05 -0.00023645298 -0.06166557 0.07537998

net.2.weight f4 [1, 1024]
00000000: f284 cd3c 6c78 813d 39f2 21bb a5d0 ffbb
00000010: 42c6 e93c 647d c63c 48d2 843c 93c0 2ab9
00000020: 64e9 873c c9fd fa3c e6f0 1b3d b9f0 003d
00000030: f6e4 c33c e50a 053d b433 3e3d 8df7 583d
00000040: 3429 923c 2f10 b63c 05c4 c03c 57c1 143d
00000050: 5e7d 403c 5db1 e43c 00bb 1fba ad4d 333b
00000060: ff62 9abb b768 9e3c fd74 693d 371f d63c
00000070: a355 263d e187 003b a0f9 303d 8b9c 513d
00000080: 93c0 293d 049c f63c 1650 e43c 140e ae3b
00000090: 5402 b13c f199 043d 309b 823c 3f98 1d3c
000000a0: 1dcf f33c de70 863c c352 ae3c da9f 853c
000000b0: 352c 723d ee6e 933b 1048 083c d23f 3b3b
000000c0: dc99 0e3d 4336 8b3c de75 14bc fce8 4d3c
000000d0: f569 213d e39e 003c d43f 173c 6e83 413d
000000e0: 79cf 303d d6d8 4a3b 4519 d33c a158 ad3c
000000f0: 6604 8bba d8fe 3f3c 8851 093d 0989 293d
00000100: 893d 6b3d 8d8e 673d cbf8 d43c 2299 453b
00000110: 7c75 883c 7d1c f03c 3088 f8ba 26b8 893d
00000120: 7e76 1d3c 1cdc 113c 28b7 153d 2c77 863c
00000130: 70b3 643d ee01 c03c ea07 773d d9dc 433c
00000140: 0161 0b3d 02fa 373d 58bd 733b fea8 9a3c
00000150: f672 87ba 3f26 84bb 695f 38bc ae01 553b
00000160: b458 283d 9d29 493d 4cd7 573c 5867 473c
00000170: e9b3 2f3d 18c4 983c c783 0d3c 3eb0 1d3c
00000180: 2bd3 143c 40f4 173d f989 b33b 820b 513d
00000190: 3d23 263d 5e2b ba3b 1482 2d3d 5f6c 5f3d
000001a0: 6ba3 873c 019e 263d d3eb 0c3d 51d8 f43c
000001b0: a0e2 f93c 3466 4f3d 6b90 ab3c f608 703b
000001c0: ecae f73b 0a75 7e3c 23f8 053d 8430 6a3d
000001d0: 5602 40bb 960a c53b 0254 b5bb d66c b13b
000001e0: 8465 5038 db32 4d3d ebcc eb3c 6ded 353d
000001f0: 2496 bc3c 8c6d 383c 5805 e33c 2686 f13b
00000200: 7176 d23c 44d6 bc3c 48b6 843c 8332 d63c
00000210: 639d e03c b67c 363a b324 603d ea05 f43c
00000220: 413b 243d a1d4 2b3d 239d 023d a05e d2bb
00000230: 8234 533d 9c32 543c bb71 423d 373a 393d
00000240: d21b 0c3d dde1 153d 0785 bd3c 4d16 503d
00000250: fe52 313d 881b 9c3c d4de 2e3d 0542 0c3c
00000260: a8f4 3e3d 610b 503d 8deb d038 b854 a5ba
00000270: 09c3 cc3c fa95 183d 78a3 493d 28b3 bab9
00000280: dd36 943c ebe1 ef3c 904f 673d 0b41 bc3c
00000290: 2106 633d 9539 84bb 0ea2 4f3d be98 1a3d
000002a0: d496 c23a 4ba8 d63c ada2 fd3c a234 093c
000002b0: 81c8 5d3c 6aa3 6f3d ef65 ae3c 24f5 7a3c
000002c0: b74b d03c 5ed5 5f3d b0f8 883c 1ca2 6c3d
000002d0: ed56 8f3c e12c 5a3d 85b1 0fba d15a 31ba
000002e0: ee32 603c de3d f73c c4b7 053d fb58 193c
000002f0: 4462 463c 4cc8 863c 7e49 4e3b 492b 443d
00000300: eb1e 073c 6c21 373a 5f73 353d 7921 353c
00000310: 69a3 033d d9b7 193d 659a 473c ddc8 773c
00000320: f27a d53c 01e9 1e3d 7077 b63c 128c 353c
00000330: 2453 963c 3c59 4d3d d333 003d 9861 093d
00000340: 4243 0a3d b1eb 3c3c 24f4 d93c 2ce2 04bc
00000350: 3adb 123d 33cc 293d 0ae8 fa3b 3d69 393d
00000360: 65aa 1d3d 260f 4a3d 18a8 3b3d c096 293c
00000370: aae5 13bc 4e91 713c b9af 273c 9827 d83c
00000380: 9a07 ce3c 970e 403d 953d 813d 5756 603d
00000390: b88b 4c3c ffe1 a73b 0d06 e03c 419a 223d
000003a0: 9a61 c13a 6b3f aebb 1e6b 5f3d 2788 453b
000003b0: f24b 6bbb 9d83 2b3c afd4 4c3d e0c2 443d
000003c0: e6d5 e93c 3039 373d 7d47 253c 476c 713c
000003d0: d1ae 9d3b a704 393d 6fd6 2a3d 6a73 db39
000003e0: e7a0 b03c 1037 df3b ced0 253d ad0f 0a3c
000003f0: 7d2f dc3c 8ca4 253b 5297 d53c 62c3 db3b
0.025087807 0.06321797 -0.0024711026 -0.007806855 0.02853692 0.024229713 0.016213551 -0.00016284203
0.016590782 0.030638592 0.038071536 0.03147957 0.023912888 0.032481093 0.046436027 0.052970458
0.017841913 0.022224514 0.02353097 0.036317196 0.01174864 0.027916605 -0.0006093234 0.002735953
-0.0047115083 0.019337041 0.056996334 0.026137931 0.040609013 0.001961224 0.04320681 0.05117468
0.04144342 0.03010369 0.02787022 0.005311737 0.021607555 0.032373372 0.01594314 0.009618818
0.029761845 0.016411241 0.021279698 0.016311575 0.05912419 0.004499308 0.008317962 0.0028571975
0.0348147 0.016993647 -0.009061305 0.012567755 0.03940769 0.007850382 0.009231526 0.04724448
0.04316661 0.0030951998 0.025768885 0.021160426 -0.0010606169 0.011718474 0.03352502 0.041390453
0.05743173 0.05653243 0.02599754 0.0030151089 0.016657583 0.02931046 -0.0018961485 0.06724577
0.00961077 0.008902576 0.036551625 0.016414247 0.055835187 0.02343842 0.06031028 0.01195451
0.034028057 0.04491616 0.0037191715 0.01887941 -0.0010333944 -0.0040328796 -0.011253216 0.0032502222
0.04110022 0.04911195 0.013173889 0.012170635 0.042896185 0.018648192 0.008637375 0.009624539
0.0090835495 0.03709817 0.005479094 0.051036365 0.04056095 0.0056814393 0.04236038 0.05454671
0.016557416 0.040678028 0.034404587 0.029888304 0.030503571 0.050634578 0.020942887 0.0036626435
0.007558694 0.015530834 0.032707345 0.057175174 -0.0029298267 0.006013225 -0.005533696 0.0054145856
4.968561e-05 0.050097328 0.028784236 0.04441588 0.023020811 0.011256587 0.027712509 0.007370728
0.025691243 0.023051389 0.0162002 0.026147133 0.027418798 0.00069613324 0.0547225 0.029787976
0.04009557 0.041950826 0.03188814 -0.0064199716 0.051563747 0.012951519 0.047471743 0.045221534
0.03420622 0.036592353 0.023134721 0.050802518 0.04329204 0.019056097 0.042692974 0.008560662
0.04662004 0.0507921 9.962088e-05 -0.0012613749 0.024995344 0.037252404 0.04922816 -0.00035610166
0.018092567 0.02928253 0.05647236 0.022980234 0.055425767 -0.0040351846 0.050691657 0.037743323
0.0014845976 0.026203295 0.030961359 0.008374365 0.013536573 0.058505453 0.02128884 0.015317235
0.025426729 0.054646842 0.016720146 0.057771787 0.017497504 0.053265456 -0.00054814696 -0.0006765547
0.013684018 0.030180868 0.032645956 0.0093595935 0.012108389 0.01645293 0.003147691 0.047892842
0.0082471175 0.0006985876 0.04429948 0.011055344 0.032138262 0.037528846 0.012182807 0.015123573
0.026059601 0.03879643 0.02227375 0.011080759 0.018350191 0.05013393 0.031299423 0.03354034
0.03375555 0.011530803 0.026605673 -0.008110564 0.035853602 0.041454505 0.0076570557 0.04526638
0.03849258 0.049330853 0.045814604 0.010350883 -0.009026924 0.014744116 0.010234767 0.026386067
0.02515011 0.046888914 0.06310574 0.05476984 0.012484483 0.0051233764 0.027346635 0.03969789
0.0014753819 -0.0053176186 0.054545514 0.0030140968 -0.0035903421 0.010468391 0.05000752 0.04803741
0.028544378 0.044732273 0.010087845 0.014735288 0.0048120995 0.045170452 0.041708406 0.00041856925
0.0215611 0.006811984 0.040482335 0.008426589 0.026878113 0.002527508 0.026073132 0.006706641

exp_avg f4 [1024, 3]
00000000: fee3 8dbc 9cf5 86b9 7371 85ba 10f2 88ba
00000010: e147 54bc a609 713b 6a7b 67bc 9bcf 0a38
00000020: e462 223a cb7a 83b7 cdb0 663b ce14 bfb8
00000030: 8ecd a83a 094c ab3b 4948 28ba de69 6bb9
00000040: bac0 94b9 5921 e839 ae62 d6ba f698 393a
00000050: 4e3b a039 6158 96b9 fee6 b4ba 9951 9439
00000060: ee75 7a3c 6573 843a c6cb a539 799c 86b9
00000070: b68e 513b 849e f0bb 90be b9b9 1ac2 8eb9
00000080: 00f3 7f3b 5efe 0cba 8656 8eb9 5e0c 293a
00000090: 6e5c 9d3b cbd4 98b9 7016 743c 432b 55bc
000000a0: 4210 80b9 8251 a4bc ece5 f5b9 14ab 3b39
000000b0: 6d69 99ba e030 ccb7 e7fb a2b9 6026 81bc
000000c0: b13b 013c 6e0d 833b 63b4 be3a ce74 123c
000000d0: d0b5 fc37 8a01 ed3a 3a2a 293c 3e76 90b9
000000e0: 1a5d 08bc de0c 07bb 2cbf 8cb9 8121 283a
000000f0: d3a8 08b8 99e8 2f3b a4e3 8839 bac1 0bbc
00000100: e594 55b9 971d fc39 a7d0 653b 3df3 94b9
00000110: 85bb a6ba 389b eab7 f310 68b7 53ad 1db7
00000120: b340 92bc 0924 6c3c 5ab7 333b c5c8 7eba
00000130: e26d 3cbb a7c5 c439 8a03 c93a 5f4a c7bb
00000140: 2b45 e6b9 7cab 23b9 e605 5bbb 91b6 013a
00000150: 2b46 1fbc 1cea 963c d928 aa3b 0861 7dbc
00000160: 8eff 0bbb 64a1 293a 81c9 e0b9 00a5 2937
00000170: 146b 5abc da67 87bb 311a 313b 8262 4abc
00000180: 064c f5b9 123c bd3a 196f 633b c98f 76b9
00000190: 3b9c fdb8 d10d 893a a0ba 5db9 9298 66b9
000001a0: 8b02 fe3b f76a 913c 44d1 8f3a 6997 4fba
000001b0: 6a4f 5fbc 3164 8cbc d163 db39 6fa4 34ba
000001c0: 6a0f 79b9 068f 173a 5b96 803c 1c0a 8e3c
000001d0: 06d4 a039 91fb d6b8 5837 8f3a 623b 4439
000001e0: 7648 97bc 109e 50b8 d92b 803c 0586 25bc
000001f0: d337 66b9 018d 9e39 079e 37bc fe08 37bc
00000200: bfb3 083c 8bbb 62b9 33e8 413b 445a a839
00000210: c915 16ba c01d aebb d6b8 173a b921 a33b
00000220: b3a4 773a 863e 1437 cf03 e0b7 8c42 173c
00000230: 1974 4dbc 36ca 8e3b c8ed 37b8 7082 1237
00000240: e161 2a39 ac9e 27bc e6b0 243a 8407 863c
00000250: 4a0d 5738 15b1 5939 8462 8c38 1a94 1d3c
00000260: 989a 6b3a 20fc 993b 0667 81bb 9c25 ab39
00000270: c28a cbb9 1f46 55b9 f7b0 863c e8ee e43a
00000280: 6eaa cf3b 0b93 883a d670 3b39 a32b c9b8
00000290: ad6f 57bc e982 6cbc de44 7ebb 78ba e4bb
000002a0: 5648 da39 ca1e 4839 7802 9939 6318 08bc
000002b0: ad49 983c a1dd 103c 5076 e039 a34c a03c
000002c0: 407d 2fbb ecab 33bb 852b 02bb 5296 d639
000002d0: 6562 5fbc a856 293c 9557 4eb7 a63c 6e3a
000002e0: d801 d9ba 4341 6b39 fefd 98b9 e575 75b9
000002f0: da98 723c 803c efba a666 4739 a91d 02bc
00000300: bf55 2cba 8dc7 f7b9 ca6a 873b 1dbf c23b
00000310: 2e28 6839 6a62 6c3a 3b53 87b9 7e3a 273c
00000320: 4449 db39 5ce2 da3b 74ae 3cba 7928 623c
00000330: 166b 943c 89ce cc3b 7b15 423b d6c4 88b9
00000340: 5c51 49ba dcae 0e3a 0973 0c39 4850 ceb5
00000350: 2c5b c838 8ef1 073b b2a2 71bc ddd7 92bc
00000360: 1955 54bb b193 f7b8 8c45 4239 d187 9bb8
00000370: fba5 99b8 985c 9abb 74cf b7b9 1987 eb3b
00000380: ab04 a7bb f156 4d3c 3fb6 f5b8 56f1 9e3c
00000390: 26b2 98bc 8399 87bc 55fc 203b aa86 88bc
000003a0: eac0 1dbc ff41 b33a 7255 623a 0632 7cbc
000003b0: 60ab 323c 0807 93b8 e6a6 073c de1d 1fbb
000003c0: 7f91 93bc 1834 8fbb f81b 1e3a cd29 afbc
000003d0: 5961 9ab9 f164 52bb 25d8 28b8 6964 35b8
000003e0: a8a6 9e38 6cff 96bc c10c ac3a 39c6 78bb
000003f0: 3218 633b a4cb 813c 9619 12b9 5ab6 9537
-0.01732063 -0.00025741465 -0.0010180905 -0.0010448117 -0.01295659 0.0036779433 -0.014128545 3.309511e-05
0.00061945454 -1.5673597e-05 0.0035200596 -9.111465e-05 0.0012878643 0.00522757 -0.0006419463 -0.00022450785
-0.00028372352 0.00044275334 -0.0016356313 0.0007079983 0.00030561764 -0.00028676077 -0.0013801751 0.00028289555
0.015286906 0.0010105191 0.00031623075 -0.00025675053 0.0031975931 -0.0073431153 -0.0003542793 -0.00027228968
0.0039054751 -0.000537848 -0.00027148816 0.0006448681 0.0048022782 -0.00029150242 0.014897928 -0.013010803
-0.00024426176 -0.020058397 -0.00046901347 0.00017897441 -0.0011704393 -2.4341454e-05 -0.0003108673 -0.015765369
0.007887767 0.0039994037 0.0014549609 0.008938981 3.0125404e-05 0.0018082124 0.010325009 -0.00027553918
-0.008322978 -0.0020607035 -0.00026845315 0.0006413684 -3.2582157e-05 0.002684152 0.00026109547 -0.008530075
-0.0002036873 0.00048087232 0.0035066993 -0.00028409986 -0.001272068 -2.7967253e-05 -1.3832224e-05 -9.398284e-06
-0.017853117 0.014412888 0.0027422518 -0.0009719248 -0.0028752019 0.00037531296 0.0015336138 -0.006081864
-0.00043920553 -0.00015608774 -0.0033420264 0.0004948164 -0.009721319 0.018422179 0.0051928577 -0.015465029
-0.002136204 0.00064708875 -0.00042874741 1.0111602e-05 -0.0133311935 -0.004132253 0.0027023668 -0.012352588
-0.00046786683 0.0014437458 0.003470367 -0.00023513952 -0.0001209308 0.0010456388 -0.00021145726 -0.00021991346
0.007751768 0.0177512 0.00109724 -0.0007918985 -0.013629774 -0.017137619 0.00041845304 -0.00068909576
-0.00023752233 0.0005781505 0.015696695 0.017338805 0.00030675548 -0.00010251173 0.0010926528 0.00018714138
-0.01846717 -4.973827e-05 0.015645908 -0.0101027535 -0.00021955305 0.00030241164 -0.01120711 -0.0111715775
0.008343636 -0.00021622905 0.0029587864 0.0003211071 -0.0005725292 -0.005313605 0.00057877356 0.0049783853
0.00094468443 8.836045e-06 -2.6704654e-05 0.009232175 -0.012539887 0.0043576015 -4.385205e-05 8.732648e-06
0.00016248926 -0.010230701 0.00062824634 0.016361006 5.127237e-05 0.00020760701 6.69407e-05 0.00961783
0.0008987575 0.004699245 -0.003949049 0.00032643683 -0.0003882256 -0.00020339385 0.016441805 0.0017466219
0.0063374555 0.0010419799 0.00017875744 -9.592555e-05 -0.013149184 -0.014435508 -0.0038798372 -0.0069802366
0.00041634095 0.00019084956 0.00029184273 -0.0083065955 0.018589819 0.008841903 0.0004281276 0.019567793
-0.0026777536 -0.0027415706 -0.0019862365 0.00040929258 -0.013634299 0.010335602 -1.2298949e-05 0.0009088017
-0.0016556336 0.00022435658 -0.00029180938 -0.0002340894 0.01480695 -0.0018252283 0.00019016358 -0.007941642
-0.00065740565 -0.00047260188 0.0041326033 0.0059431926 0.00022140212 0.00090173504 -0.00025811218 0.010206817
0.00041825522 0.006679816 -0.00071976264 0.013803595 0.018117469 0.006250207 0.0029614854 -0.00026086596
-0.0007679665 0.0005442926 0.00013394294 -1.5371561e-06 9.553725e-05 0.0020743343 -0.014748262 -0.017925197
-0.0032399355 -0.000118053875 0.0001852719 -7.416274e-05 -7.326525e-05 -0.004710745 -0.00035059045 0.0071877358
-0.005096992 0.0125329355 -0.00011716456 0.019402187 -0.018639635 -0.016552692 0.0024564464 -0.016665775
-0.009628514 0.0013676285 0.0008633948 -0.015392786 0.010905117 -7.010816e-05 0.008279538 -0.0024279277
-0.018013714 -0.0043702237 0.00060313893 -0.021382237 -0.000294457 -0.0032103623 -4.025562e-05 -4.3247277e-05
7.565069e-05 -0.018432342 0.001312636 -0.0037959947 0.0034651873 0.015844174 -0.00013933177 1.7847098e-05

exp_avg_sq f4 [1024, 3]
00000000: 554a 223a 36f1 7236 6410 5138 28e4 0b38
00000010: 9ce0 d839 893a aa38 b2a5 f739 2c2d 0b36
00000020: e6a5 0438 b449 5637 fa1f cd38 6b89 4d37
00000030: 53ea 5938 7630 1f39 190b 3638 d45b 2137
00000040: e7fc 8737 d0b6 c836 2cd7 4e38 627c 0e38
00000050: 1c0a 1e36 cae7 a137 3d69 4638 6cf4 b737
00000060: 8edd 0b3a 2b87 2738 b453 df35 ae03 9636
00000070: 2b68 cc38 d524 7039 039e 5037 793c 5c37
00000080: 6bff bf38 ad2b a437 09f6 a336 caec 6137
00000090: e635 1139 a218 1936 3996 ff39 6ffe d639
000000a0: 7f1c bd36 2efd 553a a9e2 3137 75d7 ff37
000000b0: e59a 9138 dcba 0438 bcb3 7037 6893 203a
000000c0: 6a62 7139 7825 ee38 f2f5 2c38 2902 8d39
000000d0: 9303 8537 3bf0 4738 88c7 a839 0a2c 1a36
000000e0: 6c6b 8539 b453 7038 1e49 eb36 d79f 2c37
000000f0: 53b0 2f35 cc12 a638 bf88 2e37 4fcc 7b39
00000100: bb41 fa36 3b6f 1f37 7175 cc38 a733 af37
00000110: b305 3b38 f241 2636 4f0c cd36 d584 4537
00000120: a0f8 2c3a 5f20 003a 2530 ab38 2958 0a38
00000130: aec2 a638 e025 b935 bacd 9138 5e0a 2f39
00000140: 0f85 7138 98e7 8037 ea69 bf38 7c55 0c36
00000150: 42a3 9139 299e 393a d979 0539 d8b0 0b3a
00000160: a40c 8538 c471 fb37 4dea 1537 bd41 c937
00000170: d39e fc39 7e5c e338 04d4 c538 8252 ed39
00000180: c297 6c37 ff2d 7838 6803 a838 7f97 8036
00000190: bf06 5c37 8722 e137 cca2 6d36 d2c9 ba36
000001a0: 7877 5639 bb70 2b3a 129f 2738 0e55 1438
000001b0: 81c9 e639 4502 213a f3f6 bd35 2486 cb37
000001c0: a18e ed36 3187 fe36 092f 103a 5431 273a
000001d0: 8cfe c035 b4e5 c836 4d55 2e38 932b f435
000001e0: 1393 323a 76f8 9237 b9a3 073a 8af6 9c39
000001f0: 83c3 ea35 c3ef 3e36 26fc b139 b7d5 b239
00000200: 56da 6e39 2f6a 3137 2f86 b638 78c8 9435
00000210: 4227 9d37 b00f 1839 b007 2138 b37d 1039
00000220: e816 1a38 d209 5037 736f 1e35 9c6f 9039
00000230: 102b d539 49bb fc38 c4d1 2e37 2125 3c37
00000240: 6ab7 f737 4f6d a039 d711 b836 270e 1a3a
00000250: 5545 6d37 a4aa 6037 4850 9036 4929 9539
00000260: 8f92 2f38 c02f 0b39 7c5e e238 ed7f 6437
00000270: ce19 1537 2037 6937 6ebd 0f3a acdc 6c38
00000280: 6ddd 3a39 021f 1738 0968 a837 f37c 0d36
00000290: 1a45 e339 9b56 f839 d0e4 db38 8d0c 7539
000002a0: 4805 2138 d522 f137 d918 0138 9ede 7a39
000002b0: 10d5 373a e173 8639 afc1 0238 8835 493a
000002c0: 2cb1 bc38 418d 9b38 e722 7538 fe4a cb35
000002d0: d287 ec39 d8cc a539 73d6 2536 07e7 2438
000002e0: 646d 5c38 c490 5f36 1be7 aa36 868e 0e37
000002f0: 7338 f939 90e2 5838 baa6 ef37 13fc 8839
00000300: 3427 a437 69f2 cf37 d40b c738 56b6 4239
00000310: 27e7 1838 d721 0538 bf13 0337 871a a739
00000320: 5d06 4337 bc59 4439 48ec 0338 0d15 f139
00000330: 6f6e 313a 0b1a 3939 13ea a038 ed18 4637
00000340: 8031 fd37 fc9c 3e36 45f9 7337 9a2e 1d37
00000350: cb48 9037 1ef8 b838 fcfe 023a 83d0 433a
00000360: d6ae b838 4634 dc35 572b 5936 76ef 3b36
00000370: 0156 6836 67f7 0a39 0493 e936 6e89 6139
00000380: 8ad8 2b39 a117 d639 981b a436 9c13 3e3a
00000390: 0357 333a 6624 183a 3a44 6638 0330 193a
000003a0: 7eca 9339 7cfd 1a38 1480 7c38 22dd 0c3a
000003b0: 985e 9e39 e2a0 0036 20bb 7e39 98e6 9e38
000003c0: 2786 2a3a daf9 f438 3ab2 1037 684c 5c3a
000003d0: 9790 4a37 5847 fb38 87fc 8136 2720 9f35
000003e0: 0ceb ad36 908f 313a b8ab 4d38 e4bc ee38
000003f0: 2af1 c638 ea12 123a b119 6e37 4d3d 2536
0.0006190886 3.6201213e-06 4.9844748e-05 3.335267e-05 0.00041366077 8.117135e-05 0.00047234964 2.0738908e-06
3.1625757e-05 1.2772554e-05 9.781118e-05 1.2250947e-05 5.1955063e-05 0.00015181475 4.3402517e-05 9.617728e-06
1.6211021e-05 5.9817467e-06 4.931462e-05 3.397128e-05 2.354972e-06 1.930063e-05 4.730489e-05 2.1929118e-05
0.00053354434 3.9941788e-05 1.6639156e-06 4.4707767e-06 9.746881e-05 0.00022901905 1.2434556e-05 1.3127102e-05
9.155165e-05 1.9570662e-05 4.886421e-06 1.3466177e-05 0.00013848356 2.2813115e-06 0.00048749315 0.00041006829
5.6359563e-06 0.0008163032 1.0602796e-05 3.0498699e-05 6.94299e-05 3.164528e-05 1.4346962e-05 0.0006125481
0.00023020213 0.000113557035 4.123705e-05 0.00026895225 1.58565e-05 4.766903e-05 0.0003219212 2.2973422e-06
0.00025447772 5.7298414e-05 7.0120577e-06 1.02892145e-05 6.5449166e-07 7.918998e-05 1.0403047e-05 0.00024013336
7.4582326e-06 9.503036e-06 9.749353e-05 2.0885678e-05 4.4589582e-05 2.4774313e-06 6.110909e-06 1.1773042e-05
0.00065983273 0.0004887636 8.162883e-05 3.298387e-05 7.951759e-05 1.3794597e-06 6.952458e-05 0.00016693163
5.7582798e-05 1.5366633e-05 9.127318e-05 2.0911384e-06 0.00027778192 0.00070807576 0.0001272926 0.0005328781
6.344289e-05 2.9974508e-05 8.9356445e-06 2.3991679e-05 0.0004818352 0.000108414315 9.433183e-05 0.00045265636
1.410203e-05 5.9170645e-05 8.011499e-05 3.8323337e-06 1.3114593e-05 2.6838168e-05 3.5410512e-06 5.566727e-06
0.00020453136 0.00065399305 3.996405e-05 3.5365163e-05 0.0004401915 0.0006142001 1.4153469e-06 2.426195e-05
7.0797546e-06 7.5855282e-06 0.0005500173 0.0006377895 1.4379198e-06 5.9872054e-06 4.1564275e-05 1.8192098e-06
0.0006812077 1.7520255e-05 0.0005174238 0.00029938325 1.749126e-06 2.8451766e-06 0.00033947936 0.00034110036
0.00022778785 1.0574745e-05 8.70343e-05 1.1085203e-06 1.873414e-05 0.00014501694 3.839255e-05 0.00013779737
3.6737794e-05 1.2400053e-05 5.9021767e-07 0.00027548976 0.0004065861 0.00012051181 1.0420048e-05 1.1214318e-05
2.9530103e-05 0.0003059902 5.485704e-06 0.00058767427 1.4142443e-05 1.3391171e-05 4.3008804e-06 0.00028450254
4.1859745e-05 0.00013273861 0.00010794119 1.3619644e-05 8.8871e-06 1.3900717e-05 0.00054832443 5.64723e-05
0.0001782083 3.6030084e-05 2.0075606e-05 2.1083367e-06 0.000433483 0.00047366772 0.000104853534 0.00023369696
3.839031e-05 2.8745659e-05 3.0779138e-05 0.0002392479 0.0007012645 0.00025644808 3.1174797e-05 0.0007675518
8.9975394e-05 7.4172865e-05 5.8445057e-05 1.5146504e-06 0.00045114622 0.00031623873 2.4711742e-06 3.9315808e-05
5.2553965e-05 3.3313854e-06 5.093299e-06 8.497043e-06 0.0004753504 5.1709416e-05 2.8568658e-05 0.0002612775
1.9568579e-05 2.4789204e-05 9.4912626e-05 0.00018569207 3.64549e-05 3.1741187e-05 7.812806e-06 0.00031872487
1.1624387e-05 0.00018725445 3.1452888e-05 0.00045982786 0.000676847 0.00017652677 7.672994e-05 1.1807523e-05
3.0183e-05 2.8403583e-06 1.4541966e-05 9.3687795e-06 1.7200035e-05 8.820019e-05 0.0004997102 0.00074697303
8.8063694e-05 1.6406491e-06 3.2360747e-06 2.8004556e-06 3.4620755e-06 0.0001325287 6.961056e-06 0.00021508869
0.00016388498 0.00040834866 4.890793e-06 0.0007250847 0.0006841274 0.00058037636 5.4899814e-05 0.0005843641
0.00028188893 3.6952537e-05 6.0200764e-05 0.00053735275 0.00030206586 1.9167132e-06 0.00024293037 7.5769785e-05
0.00065049756 0.00011681365 8.624565e-06 0.00084037194 1.2073803e-05 0.000119819015 3.8738976e-06 1.1855781e-06
5.183165e-06 0.00067734066 4.9035734e-05 0.00011383908 9.486296e-05 0.00055722764 1.4191887e-05 2.4622598e-06

exp_avg f4 [1024]
00000000: 7dad c93a 279a 99bc 0589 5db8 9eea 96bc
00000010: f987 373a 761a 333b 5d4c 2e3a 387d a73b
00000020: e5d2 51bc f4c5 503a e90f 39bc 62a7 603c
00000030: 5a0c 183a 582b 07bc 3796 04bc 7000 9aba
00000040: 2fc4 43ba 91a2 6abb 1ad8 00bb 936f cebb
00000050: 05c7 ac3b 2e0f 9fbb b798 813c 7677 2f3c
00000060: 9b27 d4b8 28a5 7a3a db07 07bc 8c05 86bc
00000070: 97b3 a3bc 7cd1 4e3a 0dbd 523b d544 ce3b
00000080: f320 0b3c 3ba1 34bc ef80 503c ca4f fe3a
00000090: f562 0c3a 62c2 253b c421 15bb 20f2 8639
000000a0: 212e 683c 9ead 923c 0681 34ba ec37 7abc
000000b0: e88d 6e39 fb0f 1dba 33aa cfbb a1b5 553a
000000c0: cfcd 573b ce7b 30bb e736 9c3c e146 103c
000000d0: e598 6ebb 2c4f 87b9 8054 6e39 7a5c 21ba
000000e0: 179e 843c af71 303a bc1d a3bc 9dbb 093a
000000f0: 5d94 37b9 66eb 4abc 17a6 5b3a c4a8 7c3a
00000100: a236 453c c867 19b9 8e5f 6cba 3ca8 8d3b
00000110: e5ac d9b9 182c 083b 11cb 61ba 8422 953b
00000120: 2622 f1ba dbdc 6a39 06db 76bc 0d32 ce39
00000130: 6cc2 1f3b 7239 8fbb 5bc1 ca3c 0487 a139
00000140: 8dce a4bc d5ee 583b 4a3e 8f3c 3b67 bbbb
00000150: 9169 f5bb f2fa 7d3b e30d 8dbc 59cd 3dbb
00000160: 1db5 e9bb 7dbe 223b 6a45 ad39 9a5b 4e39
00000170: 75bc 1f3c 8249 973c 2241 f83b 2a9d 02bc
00000180: 3cad 883c 2065 883a 53cd 5f39 a821 723c
00000190: 8f88 8fbc b146 823c 6b5b 8e3a d0b1 33bb
000001a0: 7497 d739 8654 98bc f3b9 573a 09f4 3f3a
000001b0: 61cd ecbb 3d88 413a 1619 8bbb ab56 9f3b
000001c0: 68a0 8a3c 7f82 ce39 b360 f93b 4a8f 9abc
000001d0: f968 683a 139b 5a3c d388 42ba 9d5c a13c
000001e0: 45bf a0bc bc6f f639 66ee 4d3c c85e ae3a
000001f0: c3ed 0f3a 7e3c 113a 2629 383a 78e5 b53c
00000200: a3fd 08bc c651 153a 0b83 fb3a 6769 1bbc
00000210: b8bc 8cbc b866 9b39 df7f 1a3c df82 d4b9
00000220: 944d 153a 46f6 34ba 0d6c ca3b 80aa 5b3a
00000230: 6b57 5ebc 7615 733c 63a8 5a3b 540c 9ebc
00000240: 70c7 fa3a ca3d b5bb e85e 70ba 9417 5dbc
00000250: 9599 91bc c20b a43b 8787 473b 2dc5 023c
00000260: 09b8 973a 3e26 6ebb 0650 1bbc b046 feb9
00000270: a770 213a 9d3f 37bc 854d 3c3c 695a 49b8
00000280: cf5e d53b 0a01 893a d6c9 b73b a48d b23b
00000290: d2d0 04bc d03f 3e39 5e14 92bb f037 c4bb
000002a0: 43d7 15ba 9700 2a3a b3bb 43ba ac35 6d37
000002b0: bd48 a63b 7c21 2a3c 64ee 093a fbc5 6d39
000002c0: 5cfa 51bc 5350 7a3a 962b 843c 8e8d b73a
000002d0: b239 70b9 a8a5 993c 64ed 4f3a 29f4 a5b9
000002e0: c3c6 b439 7a32 f83b dbf6 30bb ed2b 533b
000002f0: 4fb6 a039 9704 8ebb a7f1 08bc 074f 37bc
00000300: 00e9 5a39 1908 99bb 9161 c8bb 7acd 76bc
00000310: ee55 bd3b 08c9 92bc 9e89 ff39 a45a be39
00000320: 0d0a 273a 482e bd3b 78d3 52bb 568e a939
00000330: 26eb 8bbc 97c0 043b a2b8 55bc 85b5 693a
00000340: b2ed 1bbb 75c9 323c 1225 543b 6847 603a
00000350: 56b4 8fbc 853c 953c 434a 953c 4258 b0bb
00000360: 9a10 8e3a e20a b63c 7135 af3a 2792 843a
00000370: 34b2 f6b9 3be8 153c ca82 8039 4c23 0fbb
00000380: 3220 283a 3d93 d23a aab6 193a 1a7b 7fbb
00000390: ded3 dcbb d097 2dbc 0e0a 35bc 1ff0 703a
000003a0: f3e9 b2b9 3ca4 e5b8 5674 ed3b 8783 9838
000003b0: 7ca6 523c eea0 8a39 e897 2f3c 0e9b 88bb
000003c0: ddb7 733a aa85 d33a 0cd2 82bc 3fe1 87bb
000003d0: 69a0 94bc 46ff 053c efbc 7f3a 2a64 88bb
000003e0: 688d 0b3a f437 3e3b b4bd d63a 6b7b 78bc
000003f0: c028 2c3a 793a 6438 7277 bebb f991 023c
0.0015386787 -0.018750263 -5.2818115e-05 -0.018422421 0.00070011575 0.0027329004 0.0006648952 0.005111363
-0.012806629 0.00079640676 -0.011295297 0.013711782 0.00058001804 -0.00825008 -0.008092455 -0.0011749398
-0.00074678933 -0.0035802464 -0.0019660057 -0.006299922 0.0052727484 -0.0048541045 0.01581989 0.010709634
-0.00010116325 0.00095613534 -0.008241619 -0.016360067 -0.019983096 0.0007889492 0.003215614 0.0062948265
0.008491742 -0.011024768 0.012726053 0.0019402441 0.0005355322 0.0025292863 -0.0022755722 0.0002573887
0.014171154 0.017905053 -0.0006885681 -0.015272122 0.00022750313 -0.0005991456 -0.006337428 0.000815237
0.0032929068 -0.0026929262 0.019069148 0.008805961 -0.003640705 -0.00025808194 0.00022728927 -0.00061554427
0.016188664 0.00067308074 -0.01991164 0.0005254092 -0.0001750751 -0.012385225 0.00083789363 0.0009638185
0.012036951 -0.00014629879 -0.00090169243 0.0043230336 -0.00041518282 0.0020778235 -0.0008613328 0.0045512337
-0.0018397018 0.00022398254 -0.015066868 0.00039328673 0.002437736 -0.0043708617 0.024750402 0.00030808907
-0.020118022 0.003310134 0.017485756 -0.005719093 -0.007489391 0.0038754311 -0.017218536 -0.0028961508
-0.007132186 0.0024832778 0.0003304885 0.00019679815 0.0097495215 0.018467668 0.007576124 -0.007972041
0.016684167 0.0010406114 0.00021343426 0.014778532 -0.01752117 0.015902849 0.0010860985 -0.0027419217
0.00041120837 -0.018594991 0.0008229308 0.0007322436 -0.0072266315 0.0007382667 -0.004244934 0.0048626265
0.01692219 0.0003938861 0.0076104044 -0.018867154 0.000886574 0.013342637 -0.0007420901 0.019697482
-0.019622454 0.00047004025 0.012569046 0.0013303393 0.00054904463 0.0005540325 0.00070251746 0.022204146
-0.008361253 0.0005696084 0.0019188834 -0.009485579 -0.017179832 0.00029640435 0.009429901 -0.00040533298
0.0005695459 -0.00069031527 0.0061774314 0.00083795935 -0.013570647 0.01483666 0.0033364526 -0.019292988
0.0019132923 -0.0055310475 -0.00091694156 -0.013494391 -0.017773429 0.0050062845 0.003044577 0.007981581
0.0011575232 -0.0036338712 -0.009479528 -0.00048499322 0.0006158449 -0.0111846 0.0114930915 -4.8006335e-05
0.006511546 0.001045258 0.0056087775 0.005449014 -0.008106427 0.00018143584 -0.0044579944 -0.0059881136
-0.00057159754 0.0006485073 -0.0007466629 1.4138797e-05 0.005074589 0.01038396 0.0005261658 0.00022675835
-0.012816038 0.00095487124 0.016134065 0.0014003979 -0.00022909677 0.018755749 0.00079317973 -0.00031653166
0.00034480364 0.0075743767 -0.0027002606 0.0032222227 0.0003065341 -0.0043340432 -0.008358396 -0.011188275
0.000208769 -0.004670155 -0.0061151464 -0.015063638 0.005778066 -0.017918125 0.00048739923 0.00036307157
0.0006372042 0.0057733394 -0.0032169502 0.0003234024 -0.017079901 0.0020256394 -0.013044508 0.0008915293
-0.00237928 0.010912289 0.0032370728 0.0008555562 -0.017542046 0.018217335 0.018223887 -0.005381615
0.0010838688 0.022221986 0.0013367367 0.0010114358 -0.00047053548 0.009149606 0.00024511508 -0.0021841107
0.0006413489 0.0016065609 0.0005863706 -0.0038983286 -0.0067391237 -0.010595277 -0.0110497605 0.0009191054
-0.0003412511 -0.00010950162 0.0072465343 7.272424e-05 0.012857076 0.00026441313 0.01071737 -0.0041688746
0.0009297112 0.0016137857 -0.015969299 -0.0041467245 -0.018142896 0.008178538 0.00097556313 -0.004162331
0.00053235004 0.002902505 0.001638344 -0.015166144 0.00065673515 5.4413893e-05 -0.005812579 0.007969373

exp_avg_sq f4 [1024]
00000000: e1ad 1d38 00b5 5f3a c462 8537 e158 313a
00000010: 2a78 3337 4ee1 8838 883a a537 1df5 1d39
00000020: 1859 e139 22c9 7537 502b d439 bae3 db39
00000030: 5ae2 e936 ddd8 8f39 16ff 9d39 9792 d138
00000040: 7513 3538 9579 f038 1ea7 9c38 e390 6239
00000050: e3cb 0f39 e6c0 2539 99cc 153a 8e82 af39
00000060: b518 ee36 4ea1 dc37 5f7f a639 ced6 203a
00000070: 49a1 633a 12c6 1638 41d7 9a38 48f5 2639
00000080: eff4 6339 d282 c639 1bd8 c739 7a3d 8138
00000090: 9871 e936 31f2 7038 3d07 a338 8aa0 0a37
000000a0: c61a e739 cc15 273a 868f 3838 cf23 0f3a
000000b0: b0df af38 7117 0738 fd89 3e39 2672 2238
000000c0: d8a8 9b38 4f4e b738 710b 453a b86e 8339
000000d0: 7351 1639 4994 d037 0fdd 1637 9ae1 a338
000000e0: 8880 093a a2ba ed37 1d74 563a 4aeb 9c36
000000f0: 189f 8537 61d4 d439 751d 7237 ba7e 1338
00000100: ac08 b639 39b6 c938 0c7f 6a38 547f 0139
00000110: 3244 1038 eebb 4938 a651 2338 6803 e238
00000120: f3b8 8338 7ba5 1037 e1ea 173a 9bb0 ed36
00000130: 8be4 8e38 313b 1039 c4a6 823a 37c2 1e36
00000140: 9b50 5d3a 6956 a838 002c 283a 2eed 3539
00000150: cd59 5d39 dc98 f938 8fef 1f3a 3ed7 b338
00000160: 8aa6 8239 479d 8438 b5c1 9636 7066 6837
00000170: 73ac 8839 bd9f 2e3a 4535 5f39 80a4 7639
00000180: efca 1a3a 256f c037 bcd9 8537 004d ef39
00000190: f5bc 3c3a eeec 113a a02e f137 bc54 1d39
000001a0: 06fb 0537 dcff 4a3a d08c aa37 a4a8 2137
000001b0: 3485 7639 7d90 8a38 814c 0a39 54bb 1039
000001c0: 92b7 1d3a d408 2836 4d1e 4939 066b 593a
000001d0: e0f3 3f38 2f02 e639 b31e 0a38 6bd3 463a
000001e0: 63f2 443a 1828 6238 e6ea c439 8f3a 5c38
000001f0: cf03 b936 e0c7 a937 3af8 6c37 d21a 6d3a
00000200: bcb2 8d39 6666 b136 6d72 5138 404a a339
00000210: 28f9 2c3a 90eb e237 2bb0 8439 5b2a 3838
00000220: 7181 1838 6be6 8638 a20a 1d39 b0c9 4938
00000230: 943a 123a b227 013a fd5d b538 2fdb 5b3a
00000240: 5956 4038 6bad 5139 6eb0 5738 6adf 0b3a
00000250: e47e 423a 0c94 0339 bb72 9338 9607 7039
00000260: f3c0 0238 2453 3539 a599 9339 8fcf e537
00000270: dec8 1437 e68f cf39 df43 a939 c242 a237
00000280: 03fc 3039 9f9f c237 3a93 1439 2cb8 0e39
00000290: e690 9d39 c4e2 ef37 0e6a 4b39 406f 5439
000002a0: 4659 f837 27ef 1137 2c72 6938 a961 9d37
000002b0: a5fa 0939 0dc3 9139 4676 b036 f87e 8537
000002c0: 2805 ea39 928b 8a38 f879 103a 86b6 9538
000002d0: 12b2 0138 617c 293a 08df 1c38 2322 c237
000002e0: c476 6e36 baa2 4939 7a02 d138 e4ae b338
000002f0: 506e 6536 8129 0739 b8b5 7f39 a1c7 da39
00000300: 4828 b636 2acf 0639 df87 6c39 3541 0a3a
00000310: 72be 1139 740e 3f3a 57d4 9a37 e2c0 0737
00000320: 8fc2 ff36 c98a 0f39 3fe5 e038 fd34 3637
00000330: a398 273a a987 8a38 eaad f439 6955 7737
00000340: 76c6 d138 31b5 ab39 2c47 9f38 029d 4f38
00000350: 9bdf 373a acf6 233a 55ab 2f3a 6058 5939
00000360: 0689 0838 1a35 5d3a 708b 2938 3359 1738
00000370: c909 c337 22a1 8639 207c 0237 c128 b538
00000380: e984 2f37 d27e 0938 916e 9138 9a07 4239
00000390: 691d 4f39 707b ab39 7c9c c439 af63 7237
000003a0: 16b7 d937 6ea5 8e37 93a1 4039 67d1 0337
000003b0: 31f4 e439 cad8 6b36 e730 9839 3e3c 2b39
000003c0: 7c6a a937 de02 6138 1b42 153a 2973 0139
000003d0: 2212 313a bf3a 5939 79df a337 17e3 ef38
000003e0: 3d48 d836 cc8f ac38 63cb 1438 559f 0a3a
000003f0: 0cf3 0237 ba38 1137 fa7a 3d39 af48 6a39
3.7593654e-05 0.0008533746 1.5900827e-05 0.0006765258 1.0697209e-05 6.5269516e-05 1.9696789e-05 0.00015063999
0.00042981724 1.4649968e-05 0.0004046806 0.00041940605 6.970292e-06 0.0002743666 0.00030135427 9.993201e-05
4.3171884e-05 0.00011466738 7.469788e-05 0.00021607014 0.00013713496 0.00015807486 0.00057143864 0.00033475872
7.095829e-06 2.6301157e-05 0.00031756886 0.0006135524 0.0008683396 3.5947254e-05 7.3833864e-05 0.00015922368
0.00021739652 0.00037862972 0.0003811725 6.16265e-05 6.957165e-06 5.7446017e-05 7.773794e-05 8.262819e-06
0.000440797 0.00063737924 4.4002685e-05 0.0005460353 8.386315e-05 3.220834e-05 0.00018171217 3.873012e-05
7.4224256e-05 8.740706e-05 0.00075166585 0.0002506876 0.00014335457 2.4864583e-05 8.992166e-06 7.814467e-05
0.0005245288 2.833951e-05 0.00081807544 4.6765535e-06 1.592892e-05 0.00040594026 1.44311825e-05 3.5165554e-05
0.00034720206 9.6183685e-05 5.590827e-05 0.00012349832 3.4395787e-05 4.8097158e-05 3.893827e-05 0.00010777154
6.281016e-05 8.621598e-06 0.00057951926 7.08371e-06 6.813657e-05 0.0001375496 0.0009967913 2.3656883e-06
0.0008442492 8.0269594e-05 0.0006415248 0.00017349861 0.00021109656 0.000119017175 0.00061010657 8.575477e-05
0.00024919613 6.323546e-05 4.492899e-06 1.3852128e-05 0.00026068426 0.0006661376 0.00021286782 0.00023521669
0.0005904873 2.293994e-05 1.5956226e-05 0.00045643002 0.00071997877 0.00055666163 2.875115e-05 0.00015004253
7.985864e-06 0.00077438145 2.033115e-05 9.6356125e-06 0.0002351001 6.607266e-05 0.00013189205 0.00013802695
0.0006016429 2.503909e-06 0.00019180142 0.0008293841 4.5765075e-05 0.00043870645 3.2930355e-05 0.00075846043
0.0007512925 5.391994e-05 0.00037559046 5.2506624e-05 5.513873e-06 2.0239444e-05 1.4124491e-05 0.0009044829
0.00027026783 5.286932e-06 4.993605e-05 0.00031145103 0.00065984065 2.7050992e-05 0.00025308257 4.3908465e-05
3.6360176e-05 6.4325366e-05 0.00014976648 4.810997e-05 0.0005578187 0.00049268745 8.648259e-05 0.0008386848
4.5856785e-05 0.00019996396 5.1424307e-05 0.00053357205 0.0007419421 0.00012548285 7.0308764e-05 0.0002289101
3.1174113e-05 0.00017292477 0.000281525 2.739558e-05 8.8682555e-06 0.0003958933 0.0003228476 1.9342991e-05
0.0001687855 2.3200932e-05 0.00014169226 0.00013610785 0.0003005333 2.8596616e-05 0.00019399097 0.0002025934
2.9605475e-05 8.6983555e-06 5.565786e-05 1.8761335e-05 0.0001315871 0.0002780188 5.2589776e-06 1.591396e-05
0.000446358 6.60635e-05 0.0005511339 7.138871e-05 3.0921838e-05 0.0006465372 3.7401012e-05 2.3142498e-05
3.5533894e-06 0.00019229474 9.966358e-05 8.567961e-05 3.418787e-06 0.00012890065 0.0002438639 0.00041728935
5.428712e-06 0.0001285641 0.0002255733 0.0005273999 0.00013899224 0.00072882255 1.8457109e-05 8.091536e-06
7.622242e-06 0.00013689244 0.00010723853 1.0860383e-05 0.0006393289 6.6056215e-05 0.00046668883 1.4742233e-05
0.00010002863 0.0003275066 7.5949676e-05 4.949887e-05 0.0007014216 0.00062547135 0.00067012507 0.00020727655
3.255254e-05 0.00084383937 4.04226e-05 3.608428e-05 2.3250368e-05 0.00025678525 7.777504e-06 8.6383436e-05
1.0461758e-05 3.2781456e-05 6.9347334e-05 0.00018504114 0.00019752014 0.0003270763 0.00037500623 1.4447533e-05
2.5953672e-05 1.7004753e-05 0.00018370738 7.856964e-06 0.00043669486 3.5143917e-06 0.00029028134 0.00016330273
2.0195956e-05 5.364685e-05 0.00056937494 0.00012345299 0.0006754716 0.00020716617 1.9535177e-05 0.00011438707
6.4457113e-06 8.2283834e-05 3.547537e-05 0.00052880245 7.805193e-06 8.655881e-06 0.00018070257 0.00022343056
